static/mlruns/1/bc537fe444f4491d863c0c6bca6e3b61/artifacts/model/data/model.pth (torch, 13519 bytes, 8 tensors)

weight f4 [10, 1, 2, 2]
0	0x3edb5a6b	0.4284242
1	0xbe8e0a84	-0.27742398
2	0xbf13452e	-0.57527435
3	0xbf633da0	-0.8876591
4	0xbeff1685	-0.4982187
5	0xbdb96a83	-0.090535186
6	0xbf02aa6b	-0.5104129
7	0xbd85db93	-0.06536021
8	0xbe506f39	-0.20354928
9	0xbe94a7d7	-0.29034302
10	0xbce83622	-0.028346125
11	0xbef93c5d	-0.48678866
12	0xbf2ec629	-0.6827112
13	0x3f0275aa	0.5096079
14	0xbe756037	-0.23962484
15	0xbf346a1d	-0.70474416
16	0xbf74ac85	-0.95575744
17	0xbf872509	-1.0558177
18	0x3ed2d308	0.4117663
19	0xbeea7399	-0.4579132
20	0xbe14f461	-0.14546348
21	0xbd5908a9	-0.052986775
22	0xbea098f4	-0.31366694
23	0xbe783867	-0.24240266
24	0x3bdd8aa9	0.0067609143
25	0xbd1ae81f	-0.037819024
26	0xbe8c1f4e	-0.27367634
27	0xbe0c6639	-0.1371087
28	0xbf8e0382	-1.109482
29	0x3ecf7196	0.40516347
30	0xbecbb961	-0.3978987
31	0xbf647e1c	-0.8925493
32	0xbf02ef42	-0.5114633
33	0xbf34b976	-0.7059549
34	0xbfa78a7c	-1.3089137
35	0xbdb389cf	-0.08766519
36	0xbe3c2086	-0.18371782
37	0xbf02f5cd	-0.5115631
38	0xbd833464	-0.06406477
39	0xbef1a81b	-0.47198567

bias f4 [10]
0	0x3eccf0a0	0.40027332
1	0x3d83fce7	0.06444722
2	0x3ede47a3	0.4341403
3	0x3f0b0a47	0.54312557
4	0xbdbc8bc1	-0.092063434
5	0x3e7a324e	0.24433252
6	0xbefdfd5d	-0.49607363
7	0x3e4db693	0.20089178
8	0xbbc30795	-0.0059518316
9	0x3ee86563	0.45389852

weight f4 [20, 10, 2, 2]
0	0x3d3c72c5	0.04600789
1	0x3d83541f	0.06412529
2	0xbd2b368c	-0.041800067
3	0xbeb504ab	-0.35355124
4	0x3dc7ab2b	0.097494446
5	0xbd493278	-0.049120396
6	0x3dca5299	0.098790355
7	0x3e2b7971	0.16745545
8	0x3ddb4d42	0.10708095
9	0x3e074462	0.1320968
10	0xbd8a9b71	-0.06767929
11	0x3e0892a1	0.13337184
12	0xbe64b609	-0.22335066
13	0x3e92cf78	0.2867391
14	0xbe2a1d1b	-0.16612665
15	0x3cb494de	0.022043642
16	0x3d85223d	0.06500671
17	0xbe8e9e0b	-0.27854952
18	0xbe14ddea	-0.14537778
19	0x3e80527e	0.25062937
20	0x3d3e6b13	0.046488833
21	0xbdc20be4	-0.09474924
22	0x3b6c258f	0.003603313
23	0x3c9ec3a5	0.0193804
24	0xbe6f1ba5	-0.2335039
25	0xbbf0d58c	-0.0073496755
26	0xbd755a0f	-0.05990034
27	0xbe598cfb	-0.21245186
28	0xbee17821	-0.44036964
29	0x3c94f6e1	0.018184127
30	0xbee568e2	-0.44806582
31	0x3ce490ac	0.027901016
32	0xbec3e1a9	-0.38258103
33	0xbdfce1d6	-0.12347762
34	0xbe374043	-0.17895608
35	0xbe80fcfc	-0.25193012
36	0xbbe2439b	-0.006905032
37	0x3e0adc6b	0.13560645
38	0xbe16940b	-0.14704911
39	0x3e467652	0.19381073
40	0x3dcc066c	0.099621624
41	0x3e4c4253	0.19947176
42	0xbe3f0835	-0.18655474
43	0xbf0038d5	-0.5008672
44	0x3d0fbbbe	0.035091154
45	0x3d0c7e47	0.034300115
46	0xbe2079a3	-0.156714
47	0x3daa7ac0	0.08324194
48	0xbde897ad	-0.11357055
49	0x3c3371ce	0.010952426
50	0xbd8bcb0e	-0.06825839
51	0x3e0e996d	0.13925715
52	0xbe7be0c0	-0.24597454
53	0x3e1d85e7	0.15383111
54	0xbe0bdab0	-0.13657641
55	0x3d694733	0.056952666
56	0xbdc1636d	-0.09442792
57	0xbec51845	-0.3849508
58	0xbbb18af4	-0.005418176
59	0x3e32eef9	0.17473973
60	0xbe136117	-0.14392506
61	0xbdb614cc	-0.088906854
62	0xbe40ec31	-0.188401
63	0x3da740b2	0.081666365
64	0x3d15087c	0.036385044
65	0x3d54f702	0.051993378
66	0xbdd8dac3	-0.105886005
67	0xbb07317a	-0.0020628856
68	0xbe904232	-0.28175503
69	0xbdd73a44	-0.1050916
70	0xbed5d08d	-0.41760674
71	0x3b607659	0.0034250228
72	0xbe60013b	-0.2187547
73	0xbe1d4eb8	-0.1536206
74	0xbe599eb2	-0.21251944
75	0xbe419ed9	-0.18908252
76	0xbd7499cd	-0.05971699
77	0x3da55984	0.080737144
78	0xbe043b21	-0.12913181
79	0x3ddb0f8d	0.106963255
80	0xbd77d9bb	-0.06051038
81	0xbe5cce49	-0.21563067
82	0xbe7c2076	-0.24621758
83	0xbe22d5ed	-0.15901919
84	0xbe0e16b5	-0.1387585
85	0xbdfa8f4d	-0.12234364
86	0xbe4158e6	-0.18881568
87	0x3dbd9ae8	0.09258062
88	0xbd1fb903	-0.0389948
89	0x3d1b6616	0.037939154
90	0xbba88232	-0.0051424736
91	0x3d1fe179	0.039033387
92	0x3c85c921	0.016331257
93	0x3d5414d3	0.051777672
94	0xbd031668	-0.03200379
95	0x3e9be499	0.30447844
96	0x3d456dd8	0.04820046
97	0xbec50fa1	-0.38488486
98	0xbd1820a0	-0.03714049
99	0x3ccff9ce	0.02538767
100	0x3e16964e	0.14705774
101	0x3ce10730	0.027469248
102	0x3dac6942	0.08418514
103	0x3d405658	0.046957344
104	0xbe5aa857	-0.21353279
105	0xbd26aa77	-0.04068991
106	0xbe306e15	-0.17229493
107	0x3b2be4de	0.0026228945
108	0xbca4726d	-0.020074094
109	0xbcb2cd9a	-0.021826554
110	0x3d28b7d2	0.04119093
111	0x3ef7d648	0.4840567
112	0xbdd43410	-0.10361493
113	0x3d7f78ba	0.062370993
114	0x3cd2a258	0.025712177
115	0xbdea0db7	-0.11428397
116	0x3db4c3da	0.08826418
117	0xbc5c5341	-0.013447584
118	0x3dcdc3cd	0.10047112
119	0xbe029d99	-0.12755431
120	0xbd9daff0	-0.07699573
121	0x3c56c834	0.013109256
122	0x3c9d1c0f	0.019178418
123	0xbea978fb	-0.33100113
124	0x3b881d75	0.004153902
125	0xbb5e67c8	-0.003393637
126	0xbdb764fd	-0.08954809
127	0xbd3ca6ec	-0.046057627
128	0xbddf6200	-0.10907364
129	0x3d6e6b6f	0.058207925
130	0xbdd6630b	-0.1046811
131	0xbe2b3bfb	-0.167221
132	0x3d61cae9	0.05512515
133	0xbe4dd2ef	-0.20099996
134	0xbe9f49d7	-0.31111023
135	0xbe6e77a1	-0.23287822
136	0xbd23a186	-0.039948963
137	0xbe938c9e	-0.2881822
138	0xbe094b1d	-0.1340756
139	0xbf1973b7	-0.5994219
140	0xbc59d0ee	-0.013294442
141	0x3dc3138f	0.09525215
142	0x3c023048	0.007946081
143	0xbdd625b9	-0.10456414
144	0xbe2482d8	-0.16065538
145	0x37afbb80	2.0948937e-05
146	0x3d53b1aa	0.051683106
147	0xbe1c3702	-0.15255359
148	0xbdf81bd6	-0.12114684
149	0xbe00871d	-0.12551542
150	0xbe9fd9a5	-0.31220737
151	0xbea8a8f9	-0.32941416
152	0xbea9b1dd	-0.3314351
153	0xbdb46b74	-0.088095576
154	0xbdfdce0b	-0.12392815
155	0xbe999c65	-0.30002132
156	0xbdfe123f	-0.12405824
157	0x3da87eaf	0.08227288
158	0x3e1624b6	0.14662442
159	0xbdb50336	-0.08838503
160	0xbe42ca7e	-0.19022557
161	0xbe4cbe9f	-0.19994591
162	0xbe2fe18a	-0.1717588
163	0xbd074068	-0.033020407
164	0x3d740a1a	0.059579946
165	0x3d9c1604	0.07621387
166	0x3c6d958a	0.014500985
167	0x3caf2192	0.021378312
168	0x3d88f458	0.0668723
169	0xbd795bcd	-0.060878564
170	0xbd87dfeb	-0.06634506
171	0x3cfccc72	0.030859206
172	0xbe4eb0a5	-0.20184572
173	0xbc87f390	-0.016595632
174	0xbeaa389d	-0.33246318
175	0xbe3e3442	-0.18574622
176	0x3cb09ffb	0.02156066
177	0xbd56dc4b	-0.05245618
178	0xbe4f26ca	-0.2022964
179	0xbe0a37bb	-0.13497822
180	0x3dcc6760	0.09980655
181	0x3d3150e0	0.04329002
182	0xbd6d8d0a	-0.057995833
183	0x3da14f17	0.07876413
184	0xbc5e4440	-0.013566077
185	0x3cab1b38	0.020887002
186	0xbdc5ef3f	-0.09664773
187	0xbe60c395	-0.21949609
188	0xbdab2a02	-0.08357622
189	0x3c148130	0.009064004
190	0xbeb1a06e	-0.3469271
191	0xbdae888f	-0.0852214
192	0xbdcc55b0	-0.09977281
193	0xbdb6d16f	-0.08926665
194	0xbdc2e7b6	-0.095168516
195	0x3e0eb3b7	0.13935743
196	0x3e556731	0.20840146
197	0x3d96f7b9	0.07371468
198	0xbe009fa6	-0.12560901
199	0x3c80ebf7	0.015737517
200	0xbbf779bb	-0.007552353
201	0xbdcb4dbe	-0.099269375
202	0xbea1e796	-0.31622
203	0x3e37f3dd	0.1796412
204	0xbe0f4dd1	-0.13994528
205	0xbd950b14	-0.072775036
206	0xbd540e5c	-0.051771507
207	0xbdbe87bb	-0.09303232
208	0xbd832baf	-0.06404816
209	0xbd338b60	-0.04383409
210	0xbe38d094	-0.18048316
211	0xbe9d4ba7	-0.3072178
212	0xbea7be1f	-0.32762238
213	0xbe52ae1e	-0.20574233
214	0xbeaff53f	-0.34366795
215	0xbe7b4fd2	-0.24542168
216	0xbe0270fa	-0.1273841
217	0xbdc87ada	-0.09789057
218	0xbd56aeb7	-0.052412715
219	0xbe985219	-0.29750136
220	0xbd6549e0	-0.055978656
221	0xbd1eff92	-0.03881795
222	0xbd3a3a78	-0.045465916
223	0x3d0d8e21	0.034559373
224	0xbe8d0a99	-0.27547148
225	0xbe62ad04	-0.22136313
226	0xbe6baa13	-0.23014097
227	0xbe711549	-0.23543276
228	0xbe0f409b	-0.13989489
229	0x3d087f89	0.033324752
230	0xbea691f1	-0.3253322
231	0xbea9fd21	-0.33200935
232	0xbebbd78b	-0.36687884
233	0x3eb9eed1	0.36315015
234	0xbef462f6	-0.4773175
235	0xbe5e9f28	-0.21740401
236	0xbe53e5e2	-0.20693162
237	0xbe0f65fb	-0.14003746
238	0xbc43fa8c	-0.0119615905
239	0xbc56c747	-0.013109035
240	0xbcbbca12	-0.022923503
241	0xbdc095ed	-0.09403596
242	0xbd77b835	-0.060478408
243	0xbe0de7b4	-0.13857919
244	0xbb97ae7e	-0.0046289554
245	0xbd539133	-0.051652145
246	0xbe1662f9	-0.14686193
247	0x3d9b2b52	0.07576622
248	0x3cf483f0	0.029848069
249	0xbd08f6bc	-0.03343843
250	0xbd177678	-0.036978215
251	0xbdfbd904	-0.12297252
252	0xbe3aa066	-0.1822525
253	0x3e1b59ef	0.15171026
254	0x3c7b8f4b	0.015353988
255	0xbdee79fa	-0.11644359

bias f4 [20]
0	0xbcb6edf6	-0.022330265
1	0x3d820bd2	0.06349911
2	0xbd40b29d	-0.04704534
3	0xbe4386f0	-0.19094443
4	0xbd236266	-0.039888762
5	0x3ebe32e5	0.37148204
6	0x3dc1bc2a	0.094597176
7	0x3e82c20b	0.25538668
8	0x3e8b3a1f	0.2719278
9	0x3d95b146	0.07309203
10	0x3e0c1cbf	0.13682841
11	0xbe41ecaf	-0.18937944
12	0x3e426bfe	0.18986508
13	0x3e16913c	0.1470384
14	0x3ca66ead	0.020316446
15	0x3dfd403f	0.123657696
16	0x3d06fe75	0.032957513
17	0x3e7e8938	0.24857032
18	0xbe9f3301	-0.310936
19	0x3d9df21f	0.077121966

weight f4 [50, 20]
0	0xbde6dc71	-0.112725146
1	0x3da0dc63	0.078545354
2	0xbc8b8dab	-0.017035326
3	0xbe099a20	-0.134377
4	0xbe24ebae	-0.1610553
5	0xbd6ee3a3	-0.05832256
6	0x3e88cf39	0.26720598
7	0x3d6b569e	0.05745565
8	0x3d09f9a2	0.033685334
9	0x3dccc5d1	0.09998668
10	0xbd858346	-0.06519179
11	0xbe6346e7	-0.22195016
12	0x3d87246d	0.065987445
13	0xbe544212	-0.20728329
14	0x3d358bc0	0.04432273
15	0xbd665980	-0.056237698
16	0x3de8d928	0.11369544
17	0x3d448edb	0.0479878
18	0xbea82264	-0.32838738
19	0xbd0bc837	-0.034126487
20	0xbe827f2c	-0.2548765
21	0x3e0649ad	0.13114043
22	0xbe1cf801	-0.15328981
23	0xbdb943d8	-0.09046143
24	0xbcb2ff97	-0.02185039
25	0xbe0b770c	-0.13619632
26	0xbd03c05e	-0.032165878
27	0xbdb9321f	-0.09042763
28	0x3e59ad92	0.21257618
29	0x3e39969b	0.18123858
30	0xbe791946	-0.24326047
31	0xbd94d140	-0.07266474
32	0xbd83208e	-0.06402694
33	0xbe56ac98	-0.20964277
34	0xbe36c814	-0.17849761
35	0xbd77c2db	-0.060488563
36	0x3e2bdcfc	0.16783518
37	0xbe296875	-0.16543753
38	0xbe471281	-0.19440652
39	0xbe1f9a9b	-0.15586321
40	0xbd2a4026	-0.041565083
41	0xbd9b6db5	-0.07589284
42	0xbd1e80bd	-0.038696993
43	0xbd8528d8	-0.06501931
44	0xbe52fcbf	-0.20604227
45	0xbd70616f	-0.05868667
46	0xbe01493f	-0.12625597
47	0xbe1ebf7c	-0.15502733
48	0xbcec651d	-0.028856808
49	0x3de486b1	0.11158503
50	0xbeae0abe	-0.3399257
51	0xbc9b644c	-0.018968724
52	0xbc8d1464	-0.017221637
53	0xbd1006c9	-0.03516272
54	0xbd57edac	-0.052716896
55	0xbebe39f5	-0.37153593
56	0x3c9dcaca	0.019261736
57	0xbe21e197	-0.15808712
58	0xbec628c5	-0.3870298
59	0xbd24b644	-0.040212885
60	0xbe46d796	-0.19418177
61	0xbe5fde43	-0.2186213
62	0x3d9a2886	0.075272605
63	0xbe0568cc	-0.13028258
64	0xbd87bd35	-0.06627885
65	0xbd5071f9	-0.050889943
66	0xbde5f6a4	-0.112286836
67	0x3cb9e9d4	0.022694506
68	0x3e911c98	0.28342128
69	0x3c984e78	0.018592104
70	0xbe079e0e	-0.13243887
71	0xbe7377cc	-0.23776168
72	0x3e1e0550	0.15431714
73	0x3c3d2fbb	0.011547024
74	0xbe1181c5	-0.1420966
75	0x3e3a1c09	0.18174757
76	0x3e41d65c	0.18929428
77	0xbe5dd20f	-0.21662162
78	0xbce7caaa	-0.02829488
79	0xbe43e801	-0.19131471
80	0xbe023e2d	-0.1271903
81	0xbd1e5aeb	-0.038660925
82	0x3cdcc48f	0.026949195
83	0xbe20fc2f	-0.157212
84	0xbe13c01a	-0.1442875
85	0x3e4f93c2	0.20271209
86	0xbe2c95be	-0.16853997
87	0x3d9f56e1	0.07780243
88	0xbe431cb5	-0.1905392
89	0xbc8c32d7	-0.017114086
90	0xbe363538	-0.17793739
91	0xbe26a570	-0.16274047
92	0xbe15d724	-0.14632851
93	0xbe75096c	-0.23929375
94	0xbda1b569	-0.07895929
95	0x3d98957f	0.07450389
96	0xbe4cd1d6	-0.20001921
97	0x3de082e8	0.109624684
98	0xbe6b2bf7	-0.2296599
99	0x3d948099	0.072510906
100	0xbe8a5caa	-0.27023822
101	0xbe02f99a	-0.12790528
102	0xbccc9322	-0.024972502
103	0xbe61e67c	-0.22060579
104	0xbdf76181	-0.12079144
105	0xbe282bc5	-0.16422947
106	0x3e4174db	0.18892233
107	0xbddda8c0	-0.10823202
108	0x3da37292	0.07980837
109	0x3d452a92	0.0481363
110	0xbe03c7a1	-0.12869121
111	0xbe7de469	-0.24794163
112	0xbe3dd77c	-0.18539232
113	0xbdc4c3c2	-0.0960765
114	0x3dd992b6	0.10623686
115	0xbe3955a4	-0.18099076
116	0x3ea2637e	0.31716532
117	0xbe9079e8	-0.28218007
118	0xbe9b477f	-0.30327985
119	0x3e14423e	0.14478394
120	0xbe1a030e	-0.15040228
121	0xbdd037ed	-0.10166917
122	0xbd05fd97	-0.032712545
123	0xbda2bfb5	-0.079467215
124	0xbd43bdba	-0.04778836
125	0x3e1769f2	0.14786509
126	0xbe8af3b3	-0.27139053
127	0xbddaa3d5	-0.1067578
128	0xbd38e1fc	-0.04513739
129	0xbe403879	-0.18771543
130	0xbdf4d7a3	-0.11955192
131	0xbe5e28af	-0.21695207
132	0x3d65cc86	0.056103252
133	0xbe670e46	-0.22564039
134	0x3b7b00a4	0.0038299942
135	0xbd95ada4	-0.0730851
136	0xbe3a2666	-0.1817871
137	0xbd43d65b	-0.047811847
138	0xbdf567c8	-0.11982685
139	0x3d35b902	0.04436589
140	0xbcaa5726	-0.020793509
141	0xbe35ffa8	-0.17773306
142	0xbc653133	-0.013988781
143	0xbd1372bf	-0.035998102
144	0xbdffbc70	-0.124871135
145	0xbd653417	-0.05595788
146	0xbe18eebd	-0.14934821
147	0xbe430eef	-0.19048665
148	0xbe451203	-0.19245152
149	0xbd6fac15	-0.05851372
150	0xbe02c31d	-0.12769742
151	0x3e19e780	0.15029716
152	0x3da98e99	0.082791515
153	0xbd161dd2	-0.036649533
154	0x3dd281a2	0.10278632
155	0xbe4b19bb	-0.19834034
156	0xbd60045d	-0.05469166
157	0xbdddd8fb	-0.10832401
158	0x3d1e7646	0.038687013
159	0x3de237d0	0.11045802
160	0x3d61a242	0.05508638
161	0x3e172aae	0.14762375
162	0xbdc21cdd	-0.094781615
163	0xbe551988	-0.2081052
164	0x3d6fb478	0.058521718
165	0xbcf53485	-0.02993227
166	0x3d2d5911	0.04232127
167	0x3e3f65e9	0.1869122
168	0xbd2b1cc6	-0.041775487
169	0x3e4475f0	0.19185615
170	0xbea85a1f	-0.32881257
171	0xbd99cde6	-0.07509975
172	0xbe3f4f7d	-0.18682666
173	0xbc469f82	-0.012122991
174	0xbd9eadb6	-0.077479765
175	0xbe6a252c	-0.22865742
176	0xbe3929e9	-0.18082394
177	0x3dbe9717	0.09306162
178	0xbe288d57	-0.16460167
179	0x3deb60d4	0.11493078
180	0xbe0b1663	-0.13582759
181	0xbcfd816f	-0.030945508
182	0xbda0a8fd	-0.07844732
183	0xbc5adac6	-0.013357824
184	0xbe2f16fe	-0.17098615
185	0xbc8ca7a9	-0.01716979
186	0x3dbb35c0	0.091411114
187	0xbd47acc5	-0.04874875
188	0x3dc28795	0.094985165
189	0x3dfd0920	0.12355256
190	0xbe1b343c	-0.15156645
191	0xbe0fb42b	-0.14033572
192	0xbda6f9bc	-0.08153102
193	0xbd3bf617	-0.045888986
194	0x3d686460	0.05673635
195	0xbe1f0ce6	-0.15532264
196	0x3b898d50	0.004197754
197	0xbe1da210	-0.15393853
198	0xbe3d57a4	-0.18490463
199	0x3d63bbb9	0.05559895
200	0x3e663e90	0.22484803
201	0x3dcee90a	0.101030424
202	0xbe13f28b	-0.14447992
203	0xbe157c85	-0.14598282
204	0x3d15f25f	0.036608096
205	0x3dc42ed1	0.09579242
206	0xbe0fa0c4	-0.14026171
207	0xbe0bd83e	-0.13656709
208	0xbda16887	-0.07881265
209	0xbc379cc4	-0.011206809
210	0xbe576606	-0.21035013
211	0xbd6f3a2f	-0.058405098
212	0x3dbb1b95	0.0913612
213	0xbd51eeb8	-0.05125305
214	0xbe6a0804	-0.2285462
215	0xbe629991	-0.22128893
216	0xbed8af97	-0.42321464
217	0xbd3f83e4	-0.04675664
218	0xbe353257	-0.17694984
219	0xbd5fbbb1	-0.054622356
220	0xbe8fe470	-0.2810397
221	0xbe1e7ceb	-0.1547734
222	0x3dad21ad	0.08453689
223	0xbe0100d6	-0.12597975
224	0xbd64c880	-0.055855274
225	0xbce2dd28	-0.027693346
226	0xbdf11515	-0.11771599
227	0x3dd5d77b	0.1044149
228	0xbd318bbd	-0.043346155
229	0x3de312cf	0.11087572
230	0xbd8ebe28	-0.06969863
231	0xbea3e860	-0.32013226
232	0xbe2b21cb	-0.1671211
233	0x3d1eeffd	0.03880309
234	0xbb9c2cb0	-0.0047660694
235	0xbdb1f56e	-0.0868939
236	0x3d8d2c96	0.0689327
237	0x3df2c7a6	0.11854486
238	0xbe2d8775	-0.16946204
239	0xbd8f2c17	-0.06990831
240	0x3c9e93f8	0.019357666
241	0x3d82d790	0.063887715
242	0xbda0a792	-0.078444615
243	0xbe17f2c6	-0.14838704
244	0xbd08ef6c	-0.033431455
245	0xbe521be0	-0.20518446
246	0xbd48eb6a	-0.049052633
247	0xbd586c57	-0.052837696
248	0x3d7a2387	0.061069038
249	0x3c8043ef	0.015657393
250	0xbe926d59	-0.2859905
251	0xbe91ce7f	-0.28477857
252	0xbe3f770a	-0.18697754
253	0xbe4e5fc2	-0.20153716
254	0xbd6e9994	-0.058251932
255	0xbceb13b4	-0.028695919

bias f4 [50]
0	0xbe647ee8	-0.22314036
1	0xbd336d26	-0.043805264
2	0x3e16d832	0.1473091
3	0xbe204e9e	-0.1565499
4	0x3e15c5c7	0.14626227
5	0x3decaf72	0.11556901
6	0xbe775819	-0.241547
7	0xbe90ced9	-0.28282812
8	0x3d9a52f0	0.0753535
9	0x3d2e2241	0.042513136
10	0x3e9a080d	0.30084267
11	0xbe235940	-0.15952015
12	0x3ea80cb1	0.32822183
13	0xbe36087d	-0.17776676
14	0x3e789725	0.24276407
15	0xbe8c6e52	-0.27427918
16	0x3dfaf565	0.122538365
17	0xbde3b75f	-0.1111896
18	0x3e65bcf8	0.22435367
19	0x3d5a141c	0.053241834
20	0x3e61805e	0.22021624
21	0xbdd71fd2	-0.10504116
22	0xbe23be1d	-0.15990491
23	0xbd402f16	-0.046919905
24	0xbd0b5977	-0.034020867
25	0x3d303039	0.04301474
26	0x3e226a22	0.15860799
27	0x3dbbe2a7	0.0917409
28	0xbe09034e	-0.13380167
29	0x3df34ac4	0.11879495
30	0xbe21f3ca	-0.15815654
31	0xbcbecf6d	-0.023292268
32	0x3e64f168	0.22357714
33	0x3c1d83a9	0.00961391
34	0xba4dc925	-0.0007850102
35	0xbdc758c0	-0.097337246
36	0xbd7e6757	-0.06211027
37	0x3e20bfe0	0.15698195
38	0x3cd5e303	0.026109224
39	0xbe20cbcd	-0.15702744
40	0x3e108df3	0.1411665
41	0x3e578d1c	0.21049923
42	0x3e06664a	0.13124958
43	0xbe65d3ea	-0.2244412
44	0x3d9dfd3f	0.077143185
45	0xbdebab75	-0.11507312
46	0x3d923544	0.07139066
47	0x3e297b84	0.16551024
48	0x3c290215	0.010315438
49	0xbd566d5d	-0.05235039

weight f4 [10, 50]
0	0x3de4e4ca	0.111764506
1	0x3e306060	0.17224264
2	0xbd9ea062	-0.07745434
3	0x3e3df7c4	0.18551546
4	0x3d1170e9	0.03550807
5	0x3ecb8289	0.39748028
6	0xbc06b59f	-0.008222013
7	0xbda40873	-0.08009424
8	0xbe5275dc	-0.20552772
9	0x3e03c526	0.12868175
10	0xbe6c571f	-0.23080109
11	0xbca198f9	-0.019726263
12	0x3e06e943	0.1317492
13	0xbd51c85b	-0.051216464
14	0xbe00ffe2	-0.12597612
15	0xbcd29e52	-0.025710259
16	0xbd480035	-0.048828322
17	0xbe0aff0a	-0.13573852
18	0x3ecdeeff	0.40221402
19	0xbd91485f	-0.07093882
20	0xbcbe29f1	-0.023213359
21	0x3e4af7ef	0.19821142
22	0xbd0b1b3d	-0.033961523
23	0x3d2f4b40	0.042796373
24	0x3e643e09	0.2228929
25	0xbd144c1a	-0.03620539
26	0xbc9266df	-0.017871318
27	0xbe411c26	-0.18858394
28	0xbe31d7c0	-0.17367458
29	0x3ee6dbf6	0.45089692
30	0x3b4d2d4f	0.0031307524
31	0xbe7e03ef	-0.24806188
32	0x3d3eadc9	0.046552453
33	0xbe7632df	-0.24042843
34	0xbe8a939a	-0.27065736
35	0x3cda8481	0.02667451
36	0xbea8e6b9	-0.32988527
37	0x3d792fc8	0.060836583
38	0xbdef4c8e	-0.116845235
39	0x3dec1dfc	0.115291566
40	0xbe84cc5c	-0.25937164
41	0xbe537721	-0.20650913
42	0x3e9cc1af	0.3061652
43	0xbdea5b4f	-0.11443197
44	0x3d9c5f60	0.07635379
45	0xbdc70a31	-0.09718741
46	0x3b31811a	0.0027085007
47	0x3e2b971a	0.1675686
48	0xbc0303cd	-0.007996512
49	0xbe84f204	-0.25965893
50	0xbdf9a37f	-0.121893875
51	0xbe225d24	-0.15855843
52	0xbd2e183c	-0.04250358
53	0x3d051122	0.032487042
54	0x3ddc927c	0.10770127
55	0xbefd4704	-0.49468243
56	0xbe148bff	-0.1450653
57	0x3da85c40	0.0822072
58	0x3da6db60	0.08147311
59	0xbe8ae813	-0.27130184
60	0x3db3084e	0.08741818
61	0x3cb81294	0.022469796
62	0xbc8b2ca7	-0.016989065
63	0xbdc06a53	-0.0939528
64	0x3db12b08	0.08650786
65	0xbc975217	-0.01847176
66	0xbde0fda4	-0.10985878
67	0xbcfd4048	-0.03091444
68	0x3cb4f47f	0.022089241
69	0x3da85534	0.08219376
70	0x3ddba3bc	0.10724589
71	0xbe858993	-0.26081523
72	0xbe15a303	-0.14612965
73	0xbde09e18	-0.10967654
74	0xbde5abef	-0.11214434
75	0xbcf7b50c	-0.030237697
76	0x3d8e487d	0.0694742
77	0xbd418a42	-0.047250994
78	0xbcfeae56	-0.03108899
79	0xbd92bac7	-0.07164531
80	0xbdd42f32	-0.10360564
81	0xbdab6a30	-0.08369863
82	0xbd819a2b	-0.06328233
83	0xbcbc9268	-0.02301903
84	0x3df62344	0.12018445
85	0xbdae6e15	-0.0851709
86	0x3dd11141	0.10208369
87	0xbb484d28	-0.0030563567
88	0x3da653d4	0.08121458
89	0xbdde7e06	-0.10863881
90	0x3db4b59c	0.08823702
91	0x3be6df68	0.007045675
92	0xbe0544c4	-0.13014513
93	0x3d8fbfc8	0.07019001
94	0x3ceedafd	0.029157156
95	0xbe67d15d	-0.2263846
96	0xbdef6d01	-0.11690713
97	0x3dcfd58b	0.10148152
98	0x3d17cf98	0.03706321
99	0xbc773d48	-0.015090294
100	0x3d97252d	0.073801376
101	0xbc13fd30	-0.009032533
102	0x3dbb99cc	0.09160194
103	0xbd4d8464	-0.050175086
104	0x3aba8323	0.0014229756
105	0xbe728b01	-0.23685838
106	0xbd8f88d1	-0.070085175
107	0xbdb0c2e7	-0.08630925
108	0x3a8ca8d4	0.0010731467
109	0xbd4781bc	-0.04870771
110	0xbdfcafde	-0.123382315
111	0xbd83039a	-0.06397171
112	0x3c83d2ce	0.01609173
113	0xbbcd2b0e	-0.006261236
114	0x3ddaf58e	0.10691367
115	0xbdd630eb	-0.10458549
116	0xbd3fda23	-0.04683889
117	0x3e2274f3	0.15864925
118	0xbe41d58c	-0.18929118
119	0x3e7b2d7a	0.24529067
120	0xbdba9baf	-0.091117255
121	0x3de0510d	0.10952959
122	0x3de2b502	0.11069681
123	0xbe585969	-0.21127857
124	0xbda8af1b	-0.08236524
125	0x3d9fb790	0.07798684
126	0x3d95f0ec	0.07321343
127	0x3e743352	0.23847702
128	0x3df42ed6	0.11922996
129	0x3c826a1b	0.015919736
130	0x3d113a9e	0.035456292
131	0x3c11b212	0.008892553
132	0x3de2349f	0.11045193
133	0x3e2a6cb6	0.16643032
134	0xbd15fa74	-0.036615804
135	0x3d52a012	0.051422186
136	0x3e56694d	0.20938607
137	0xbd7d9251	-0.061907116
138	0xbde6d345	-0.11270765
139	0x3d462caf	0.048382457
140	0xbd360d93	-0.04444654
141	0x3ce64738	0.028110132
142	0xbdf6c2a0	-0.120488405
143	0xbb9d0c31	-0.004792713
144	0xbe075e49	-0.1321956
145	0xbe0dbf57	-0.13842522
146	0xbcaeaa9b	-0.021321585
147	0xbe644552	-0.22292069
148	0xbb84eeaf	-0.0040567736
149	0x3e32dfe3	0.17468219
150	0x3dd3b40c	0.103370756
151	0xbe4199c3	-0.18906312
152	0xbe394abb	-0.18094914
153	0x3dc30bd8	0.095237434
154	0xbdb08cea	-0.08620627
155	0x3c81189d	0.015758807
156	0xbdc313ee	-0.09525286
157	0x3ddb07ce	0.10694848
158	0x3d9ba220	0.07599282
159	0x3dda9e43	0.10674717
160	0xbda184c1	-0.07886649
161	0x3e0fce3f	0.1404352
162	0xbd4bfb71	-0.04980034
163	0xbd950f26	-0.0727828
164	0xbd263d72	-0.040585943
165	0x3dc5d8f1	0.09660519
166	0xbd15edab	-0.03660361
167	0xbb9c654c	-0.0047728177
168	0xbe6c574f	-0.2308018
169	0x3e39b85d	0.18136735
170	0xbbab41e4	-0.0052263606
171	0x3ddd3731	0.108015426
172	0xbb80c67b	-0.0039299107
173	0xbdd74219	-0.10510654
174	0xbd902cd5	-0.07039801
175	0x3ede3491	0.4339948
176	0xbd2264fc	-0.039647087
177	0x3e25517c	0.16144365
178	0x3e1d426e	0.15357372
179	0x3d8a07f5	0.06739799
180	0x3dc8c9c6	0.0980411
181	0x3eb273bd	0.34853926
182	0xbd30fb09	-0.043208156
183	0x3dcf904d	0.10134945
184	0x3db9160a	0.09037407
185	0xbae93d98	-0.0017794846
186	0x3eb84743	0.35991868
187	0xbd94992c	-0.07255778
188	0xbda02201	-0.07818986
189	0x3e5474f3	0.20747738
190	0xbdc61f04	-0.096738845
191	0xbde4ea03	-0.11177447
192	0xbd24bdc3	-0.040220033
193	0x3daaf9e2	0.083484426
194	0xbe0c35fb	-0.13692467
195	0x3b9b3645	0.004736694
196	0x3c828d65	0.015936563
197	0xbd9097f4	-0.07060233
198	0x3ca17e94	0.019713677
199	0x3d432f71	0.047652666
200	0xbb7ee6fc	-0.0038895002
201	0xbd98f339	-0.07468266
202	0xbdc7d5ec	-0.09757599
203	0xbcaeb354	-0.021325745
204	0x3de1d721	0.11027361
205	0x3aee6424	0.0018187803
206	0xbbbfc034	-0.00585177
207	0xbd845c81	-0.06462956
208	0x3dd5901c	0.10427877
209	0x3d10d62d	0.035360504
210	0x3df811aa	0.12112744
211	0xbd90d0d0	-0.07071078
212	0xbe89f310	-0.26943254
213	0x3daf402b	0.08557161
214	0x3ceb9485	0.028757343
215	0xbd80e850	-0.0629431
216	0x3e60cbbf	0.21952723
217	0xbd8951c0	-0.06705046
218	0x3d82d558	0.06388348
219	0xbe6bc2ee	-0.23023579
220	0x3e56f280	0.20990944
221	0x3cfb2edf	0.030661998
222	0x3da6c15e	0.081423506
223	0x3ea1d30e	0.31606334
224	0x3e050a50	0.12992215
225	0xbe81ce6c	-0.253528
226	0xbefd765c	-0.49504364
227	0xbe5948d5	-0.2121919
228	0x3d037543	0.03209425
229	0xbc2a5c7c	-0.010398027
230	0xbe10f91d	-0.14157529
231	0xbdcd1637	-0.10014003
232	0xbcc50865	-0.024051854
233	0xbdcba808	-0.09944159
234	0xbc959988	-0.018261686
235	0xbcfa9a9c	-0.030591302
236	0xbe9c3659	-0.30510214
237	0x3ead0e87	0.33800146
238	0x3e0d4359	0.13795222
239	0xbcd43ca5	-0.025907824
240	0x3ea132c1	0.31484035
241	0x3e82c3e1	0.2554007
242	0xbe1865b8	-0.14882553
243	0x3d7a2501	0.061070446
244	0x3dac755d	0.08420823
245	0x3e321d1a	0.17393914
246	0xbed9cacd	-0.42537537
247	0x3db00540	0.08594751
248	0x3e93e415	0.2888495
249	0xbe000a7d	-0.12504001
250	0xbde8ee62	-0.11373593
251	0x3e5f7a55	0.2182401
252	0x3c186f08	0.009303816
253	0xbce2c008	-0.027679458
254	0xbe053a4f	-0.13010524
255	0xbd8e4849	-0.06947381

bias f4 [10]
0	0x3e83c7ae	0.2573828
1	0x3ed2a761	0.41143325
2	0x3e0010b7	0.12506376
3	0xbe9d865b	-0.30766568
4	0xbe7d0b08	-0.2471124
5	0xbe5df1a3	-0.21674208
6	0xbe318244	-0.17334849
7	0x3e422d1c	0.1896252
8	0xbd1221ae	-0.03567665
9	0xbcc6d2e5	-0.024270484
